serving/measure_onnx/workspace/models/model2_quantized_dynamic.onnx (onnx, 753706 bytes, 13 tensors)

model.0.bias f4 [1024]
-0.006825618 0.044323917 -0.002788374 0.006528451 0.0651802 0.16037525 0.12560937 0.06605285
0.0006254147 0.12886286 -0.028572828 0.09406238 0.081244946 -0.08427826 0.052784882 0.082358725
0.16399169 0.07345601 0.13551933 -0.04899835 -0.14070289 0.04544875 0.06501853 0.092218935
0.08066293 0.06441556 0.11527849 0.10102531 -0.15127209 0.05303323 0.16723397 0.08566052
0.07042473 0.07685612 0.0031484447 0.12702185 0.1082962 -0.011815299 -0.06963333 -0.15035331
0.12227196 0.08967691 -0.14287552 0.13129441 0.023272218 0.0753352 0.031345062 -0.08338459
-0.11452619 0.0356762 0.03796884 0.13623026 -0.066258244 -0.019416798 -0.016659621 -0.02878431
0.10404938 -0.103787966 0.07387135 0.006127616 0.14401111 0.02453024 -0.08013846 0.04430472
0.05155462 0.07804021 0.15090632 0.09462858 -0.059932977 0.1315776 0.14966147 0.07203976
-0.15161666 -0.017459746 -0.08383765 -0.024807338 -0.13772371 0.067898646 -0.10286877 0.074946344
0.0107282065 0.1345944 -0.07078729 0.14505826 0.14154097 -0.045910835 0.18560243 -0.14068736
0.08709976 -0.06594484 0.17349407 0.02493573 0.044182815 0.06346533 -0.066045195 -0.07721797
0.15539499 0.13946557 0.1756557 0.06651217 0.17976376 0.106936716 0.16972722 0.12681796
0.019963175 0.107770786 0.092352614 0.09420388 0.0034038199 -0.106618404 0.1600918 -0.04888353
-0.10947594 -0.02677627 -0.04585055 0.14158961 0.033173498 0.041129 0.13954617 0.05800253
-0.15274923 0.17608412 -0.14417878 0.00016471212 0.16776545 0.09120273 0.10747027 0.0016416895
-0.14865054 -0.030356301 0.16564317 0.1240415 0.08522847 -0.012383962 0.11236934 0.14043033
-0.14474593 -0.039302774 -0.11901955 -0.07761073 0.07705169 0.14268397 -0.002610488 -0.0235943
0.017709173 -0.10545682 0.13094494 0.0121353315 0.11079245 0.1608201 0.12606193 0.08315687
-0.015493102 0.07914821 0.16686903 0.0341708 0.1628601 -0.12477001 -0.14679912 0.16291115
0.10031752 -0.14278199 0.06023741 -0.09751659 0.051441483 0.031831935 -0.07724248 0.045704503
-0.050825473 0.11811726 0.05750134 0.17655383 -0.082305655 0.1501456 0.17189555 0.063957445
0.06807908 -0.10064289 -0.0032786757 0.105792515 -0.032584812 -0.033025384 -0.030854864 0.04848737
0.09463501 0.09273894 0.05759971 -0.02008102 0.011852282 -0.111918196 -0.15544857 -0.025400734
0.060297165 0.08528403 -0.07184185 0.07337155 -0.049400184 0.07951978 0.14574441 0.1627425
0.16378333 0.07125848 0.049088337 0.088876486 -0.1424912 0.14339963 -0.07153471 -0.09375342
0.09974116 -0.0009532417 0.05199707 -0.03690063 -0.02574676 0.0041718725 0.12827429 -0.1566341
-0.0777885 0.088194795 0.18914181 0.16394785 -0.13441454 0.04696665 -0.023639062 -0.0342517
0.04012079 0.10376741 0.015687399 0.056546755 0.15275012 -0.14309078 0.091074996 -0.055093434
0.14858516 0.13445118 0.088542625 0.04720668 -0.08606824 0.05937131 0.01645011 0.1628725
0.14626761 0.030964596 0.10937451 0.07719862 0.12560178 0.007658071 0.013798308 0.07516464
0.058309123 -0.12827545 0.06312167 0.16896836 -0.08543866 0.049010873 -0.026689943 -0.049598902
00000000: 6fa9 dfbb ff8c 353d 27bd 36bb 9eec d53b
00000010: 327d 853d 6939 243e be9f 003e b746 873d
00000020: dff2 233a a0f4 033e 9011 eabc c7a3 c03d
00000030: c063 a63d 159a acbd f634 583d b1ab a83d
00000040: 70ed 273e 1b70 963d 94c5 0a3e 7eb2 48bd
00000050: 6b14 10be 7828 3a3d 6f28 853d 48dd bc3d
00000060: 9b32 a53d 4eec 833d 2117 ec3d 5ce6 ce3d
00000070: 12e7 1abe 5f39 593d 623f 2b3e c86e af3d
00000080: d73a 903d be66 9d3d 2356 4e3b 0412 023e
00000090: 66ca dd3d f594 41bc eb9b 8ebd 38f6 19be
000000a0: b969 fa3d 87a8 b73d f64d 12be 0b72 063e
000000b0: 61a5 be3c 5749 9a3d ae63 003d 8ac5 aabd
000000c0: b58c eabd 3521 123d 3785 1b3d f27f 0b3e
000000d0: 67b2 87bd fa0f 9fbc c279 88bc 13cd ebbc
000000e0: d717 d53d c98e d4bd dd49 973d 2bca c83b
000000f0: a677 133e a4f3 c83c a21f a4bd de78 353d
00000100: f02a 533d 8cd3 9f3d 3087 1a3e a1cc c13d
00000110: 487c 75bd 47bc 063e db40 193e 9589 933d
00000120: 6641 1bbe be07 8fbc 13b3 abbd c238 cbbc
00000130: 7207 0dbe 720e 8b3d ddac d2bd 787d 993d
00000140: 5cc5 2f3c 1dd3 093e edf8 90bd 278a 143e
00000150: 1ef0 103e 000d 3cbd 900e 3e3e 5910 10be
00000160: 5c61 b23d 170e 87bd 6ea8 313e 0446 cc3c
00000170: 0af9 343d 1cfa 813d b442 87bd 7424 9ebd
00000180: dd1f 1f3e 10d0 0e3e 16df 333e 8837 883d
00000190: fe13 383e a301 db3d f9cc 2d3e 91dc 013e
000001a0: d089 a33c eeb6 dc3d 5e23 bd3d f7ed c03d
000001b0: 9f12 5f3b c05a dabd 1bef 233e 193a 48bd
000001c0: ec34 e0bd e859 dbbc c9cd 3bbd defc 103e
000001d0: efe0 073d e276 283d 31e5 0e3e 1094 6d3d
000001e0: 4b6a 1cbe 654f 343e 9aa3 13be 93b6 2c39
000001f0: b5ca 2b3e 7fc8 ba3d 5f19 dc3d f52d d73a
00000200: d937 18be c7ad f8bc 5d9e 293e 7809 fe3d
00000210: 448c ae3d 1ae6 4abc e621 e63d f8cc 0f3e
00000220: 4738 14be f2fb 20bd 86c0 f3bd 60f2 9ebd
00000230: 47cd 9d3d bf1b 123e b914 2bbb d548 c1bc
00000240: d412 913c bff9 d7bd 6e16 063e 45d3 463c
00000250: 27e7 e23d 06ae 243e 6116 013e 264e aa3d
00000260: c8d6 7dbc 7518 a23d b7df 2a3e aef6 0b3d
00000270: ccc4 263e 6b87 ffbd 8252 16be 2ed2 263e
00000280: 4673 cd3d 7135 12be 81bb 763d c7b6 c7bd
00000290: 4eb4 523d 3462 023d 4e31 9ebd a534 3b3d
000002a0: 5f2e 50bd 76e7 f13d 8686 6b3d 87ca 343e
000002b0: de8f a8bd c5bf 193e 6305 303e 1ffc 823d
000002c0: 0b6d 8b3d dc1d cebd 0ddf 56bb bfa9 d83d
000002d0: a777 05bd a045 07bd 57c3 fcbc b19a 463d
000002e0: 00d0 c13d eaed bd3d aced 6b3d f480 a4bc
000002f0: 1330 423c 5e35 e5bd e92d 1fbe 3315 d0bc
00000300: 29fa 763d 65a9 ae3d d221 93bd d343 963d
00000310: d957 4abd 44db a23d 063e 153e f8a5 263e
00000320: d1b6 273e f7ef 913d da10 493d e004 b63d
00000330: 37e9 11be 5ad7 123e ca80 92bd cb01 c0bd
00000340: 1845 cc3d f8e2 79ba e1fa 543d 1d25 17bd
00000350: dfea d2bc 34b4 883b 565a 033e b164 20be
00000360: 944f 9fbd 799f b43d 64ae 413e f2e1 273e
00000370: f7a3 09be 1a60 403d b5a6 c1bc 834b 0cbd
00000380: b355 243d 0284 d43d dc82 803c 929d 673d
00000390: 876a 1c3e 6486 12be 8785 ba3d a7a9 61bd
000003a0: b526 183e 92ad 093e d655 b53d cb5b 413d
000003b0: 8c44 b0bd 552f 733d 62c2 863c 0cc8 263e
000003c0: 2dc7 153e 77a9 fd3c beff df3d 4f1a 9e3d
000003d0: c19d 003e 8ef0 fa3b 4c12 623c ebef 993d
000003e0: 8cd5 6e3d a45a 03be ef45 813d 0b06 2d3e
000003f0: 77fa aebd a0bf 483d dea4 dabc 3828 4bbd

model.3.bias f4 [512]
0.036651574 0.024086853 0.018837044 0.033074148 0.008473598 -0.032968394 0.024476223 0.037070435
-0.029765466 0.0035268816 0.027115129 0.034319643 0.058522467 -0.0003010461 0.0064819055 0.0013714193
0.031816725 0.03603156 0.037925072 -0.006022461 0.0004636064 0.03442119 0.034497045 -0.004703471
0.03779508 0.03766661 0.05229175 0.013135162 0.010294063 0.01919381 0.048255444 0.071618654
0.009626561 0.032168463 0.03178847 0.04841873 0.01875204 0.06261963 0.027632408 -0.010068262
0.0007181086 0.04508432 0.03819499 0.036455348 0.02083941 0.043766845 0.057348482 0.01853301
0.014677921 0.02608213 0.039416444 0.021618837 -0.0052759605 0.040191945 0.0029258372 0.05616657
0.028605903 0.023603449 0.0259381 0.05444692 0.03791153 0.021971794 0.027989436 0.011243806
0.0035914495 -0.013739891 0.051101945 -0.02039781 0.031143954 -0.0053755282 0.017056808 0.014099838
0.047199067 0.054472018 0.03228778 -0.008083707 0.01127103 0.022036271 0.0047278497 0.021458207
-0.004243815 -0.0093222605 0.030451166 0.017272469 0.04033255 0.014561335 0.01086822 0.031163454
0.057265036 0.021200407 -0.008853699 0.023515863 0.036946844 -0.0010168408 0.040092077 0.053939696
-0.002231905 0.03195525 0.024102623 -0.0039512506 -0.0047171135 0.03161042 0.007223844 0.011159805
-0.0003079336 -0.0003597917 0.038686477 0.040312473 0.032400824 0.048788637 0.02433762 0.025834631
-0.023493629 0.004277521 0.0085408725 0.02464728 0.061427876 0.049365826 -0.026754681 0.005386125
0.0023760868 0.0330541 0.02327335 0.027675698 0.030413259 0.026086068 0.05000213 0.0010432785
0.040851973 0.036398232 -0.005153879 0.0060820514 0.018847749 -0.0065823495 0.030911518 0.027095605
0.025322152 0.0040341257 0.043496273 0.033193957 0.0081984745 -0.0076100975 0.027432734 -0.030874116
0.032710902 0.00815888 0.01819418 -0.00047302374 0.019327682 0.03703475 0.011948879 0.008654307
-0.019485585 0.037967276 0.026020657 0.017746296 -0.010677354 0.051662743 0.020108437 0.0062543903
0.01857603 0.036315374 0.01596298 0.02545676 0.02985056 0.025866617 0.053851128 0.013909532
0.039381325 -0.006380606 0.037676826 0.05821262 0.042018503 0.039638408 0.034789626 0.06507687
0.03768796 0.0058531608 0.044491302 0.018111916 0.049408153 0.017327059 0.02345835 0.0433025
0.016139088 0.025878016 0.009932108 0.014397236 0.05202425 0.0042241127 0.003423506 -7.157992e-05
0.009340472 0.009823087 0.034692947 0.0012436825 0.042239103 -0.008874009 -0.0014067169 -0.03084432
0.0073282425 -0.0056986837 0.05183223 0.0033812614 0.034832418 0.014380369 0.03208173 0.016302934
-0.00043368374 0.015542571 0.0057674833 0.038352434 0.009155692 0.032142203 0.033734836 0.011069103
0.038186822 0.026315404 0.009497117 0.006283941 0.006626322 0.050947104 -0.00935727 0.05962947
0.015590074 0.04015067 0.047049794 0.018809147 0.00540507 0.043940403 0.027394453 0.0037867255
0.050318528 0.005766982 0.04809751 0.03225575 0.064678095 0.017335199 0.042914543 0.009353663
0.014655688 0.054037295 0.04536338 0.030275222 0.011340666 0.00989598 0.020908603 0.020034581
0.0010865628 0.018479785 0.029887915 0.05181528 -0.024542721 0.064866684 0.017120153 0.030890305
00000000: f61f 163d cb51 c53c 2550 9a3c c278 073d
00000010: d9d4 0a3c de09 07bd 5c82 c83c 2bd7 173d
00000020: b5d6 f3bc 4123 673b 8c20 de3c c192 0c3d
00000030: 41b5 6f3d b9d5 9db9 2a66 d43b 32c1 b33a
00000040: 4152 023d d495 133d 5257 1b3d 1158 c5bb
00000050: 3310 f339 3cfd 0c3d c64c 0d3d 931f 9abb
00000060: 04cf 1a3d 4e48 1a3d e02f 563d dd34 573c
00000070: 6ea8 283c 563c 9d3c 80a7 453d cdac 923d
00000080: b9b8 1d3c 14c3 033d a034 023d b852 463d
00000090: e19d 993c b83e 803d 5c5d e23c 5af5 24bc
000000a0: 743f 3c3a 56aa 383d 5a72 1c3d 3452 153d
000000b0: 69b7 aa3c dd44 333d 3ee6 6a3d 8ad2 973c
000000c0: aa7b 703c 31aa d53c 2373 213d fd19 b13c
000000d0: f7e1 acbb 4fa0 243d 67bf 3f3b eb0e 663d
000000e0: ed56 ea3c 055c c13c 237c d43c bc03 5f3d
000000f0: 1f49 1b3d 31fe b33c 1a4a e53c f137 383c
00000100: 865e 6b3b 481d 61bc 4650 513d 4f19 a7bc
00000110: 9b21 ff3c 3325 b0bb b8ba 8b3c 0203 673c
00000120: cf53 413d 0d1e 5f3d 3140 043d 8671 04bc
00000130: 20aa 383c 6985 b43c 14ec 9a3b 1fc9 af3c
00000140: b30f 8bbb 65bc 18bc b974 f93c fe7e 8d3c
00000150: be33 253d aa92 6e3c 9e10 323c 804a ff3c
00000160: be8e 6a3d 7aac ad3c 1b0f 11bc 57a4 c03c
00000170: 9355 173d 8447 85ba 9737 243d dfef 5c3d
00000180: 2745 12bb 82e3 023d dd72 c53c 7e79 81bb
00000190: 0492 9abb ee79 013d ffb5 ec3b 9dd7 363c
000001a0: 2672 a1b9 6da2 bcb9 b675 1e3d b11e 253d
000001b0: bab6 043d 98d6 473d b05f c73c 26a3 d33c
000001c0: b675 c0bc 722a 8c3b 04ef 0b3c 18e9 c93c
000001d0: cc9b 7b3d d233 4a3d a22c dbbc 177e b03b
000001e0: 1fb8 1b3b bc63 073d c1a7 be3c 25b8 e23c
000001f0: 3a25 f93c 73b2 d53c 09cf 4c3d 9ebe 883a
00000200: 6654 273d 5016 153d dfe1 a8bb f24b c73b
00000210: 9866 9a3c c0b0 d7bb 273a fd3c 9af7 dd3c
00000220: 6770 cf3c b330 843b 2629 323d 63f6 073d
00000230: e552 063c 205e f9bb 9dba e03c b7eb fcbc
00000240: defb 053d d3ac 053c f60b 953c 2c00 f8b9
00000250: 1655 9e3c c0b1 173d 3bc5 433c cbca 0d3c
00000260: 3ca0 9fbc 9383 1b3d 4629 d53c ae60 913c
00000270: 12f0 2ebc 509c 533d 73ba a43c a1f1 cc3b
00000280: c22c 983c 6ebf 143d ccc4 823c b28a d03c
00000290: 2989 f43c 3ae6 d33c 0093 5c3d cee4 633c
000002a0: 504e 213d 6714 d1bb 0453 1a3d 5b70 6e3d
000002b0: 981b 2c3d e25b 223d 917f 0e3d 0647 853d
000002c0: b15e 1a3d dfcb bf3b 833c 363d 715f 943c
000002d0: 3460 4a3d 7af1 8d3c ba2b c03c f65d 313d
000002e0: 1f36 843c 22fe d33c 48ba 223c 62e2 6b3c
000002f0: 6117 553d 6d6a 8a3b e65c 603b 2d1d 96b8
00000300: c708 193c 03f1 203c 311a 0e3d 0f03 a33a
00000310: e902 2d3d 4b64 11bc 9661 b8ba 3aad fcbc
00000320: c121 f03b 06bc babb 084e 543d 2798 5d3b
00000330: 70ac 0e3d a49b 6b3c 2268 033d bb8d 853c
00000340: 0c60 e3b9 45a6 7e3c 28fd bc3b 7117 1d3d
00000350: c101 163c 8ba7 033d 8a2d 0a3d 2f5b 353c
00000360: c969 1c3d 6793 d73c cc99 1b3c 85e9 cd3b
00000370: 9e21 d93b e9ad 503d 3c4f 19bc 083e 743d
00000380: 826d 7f3c 0775 243d 49b7 403d a415 9a3c
00000390: 031d b13b dafa 333d 556a e03c b62a 783b
000003a0: cd1a 4e3d f4f8 bc3b e501 453d 9b1e 043d
000003b0: f375 843d 8c02 8e3c 29c7 2f3d 1b40 193c
000003c0: 691e 703c 3656 5d3d f4ce 393d be03 f83c
000003d0: 33ce 393c c022 223c 8548 ab3c 901f a43c
000003e0: ff6a 8e3a eb62 973c 80d7 f43c 423c 543d
000003f0: d10d c9bc d3d8 843d 903f 8c3c aa0d fd3c

model.6.bias f4 [256]
-0.030409437 0.056024093 0.04848445 0.08027565 0.04331275 0.06899691 0.01368184 0.03538776
0.03613902 0.037869703 0.038700737 0.10100898 0.07029612 -0.030400379 0.036616243 -0.012930005
-0.013138166 0.05744526 0.10030555 0.08774057 0.081788406 0.09175267 0.081440195 0.07763047
0.019242482 -0.010702505 0.06938599 0.054173984 0.073200114 0.08956503 0.046136282 0.08965552
0.083513595 -0.021469364 0.10798901 0.057631653 0.0485241 0.023808155 0.039281946 0.06998456
0.028568132 0.09971308 0.08993832 0.06707049 0.08852636 0.085313186 0.04491209 0.036311578
0.10111271 0.09633122 0.03405398 0.09908299 0.09919346 0.027861373 0.037380632 -0.0100347055
0.102657944 0.013900414 0.07622944 0.032956157 0.10091555 0.043556623 0.07625883 0.0830808
0.05495339 0.08702938 0.041676953 0.062474184 0.048012167 0.047073502 0.042141236 0.08403275
-0.006946801 -0.020847455 0.12021016 0.059914194 0.090166196 0.022663884 0.07462376 -0.037245456
-0.028897857 0.07494546 -0.009703924 0.043793876 0.08125612 0.037133798 0.045258738 0.019670315
0.053344965 0.033773687 0.04321492 0.085821636 0.017733397 0.04270834 0.07061675 0.044887014
0.064548045 0.1044556 0.08176025 0.058234025 0.037137248 0.062354367 0.0022155987 0.09022922
0.04543659 -0.010877446 -0.01709815 0.005661972 0.107531555 0.059479043 0.042867064 0.037275463
0.08036988 0.078392304 0.041015238 0.106380425 -0.00214343 0.016106308 0.093660586 0.04607442
0.07329712 0.020084586 0.06285211 0.09481857 0.04722348 0.0705637 0.035133444 0.078954466
0.034909252 -0.002158327 0.024430292 0.03911423 0.061646324 -0.022932693 0.08155948 -0.0015745044
0.096080564 0.06254037 0.048128124 0.036005583 0.07907038 -0.031937897 0.07374219 0.09124461
0.064492874 0.077862084 0.06346592 0.07993715 0.06751019 -0.0037987912 0.058028456 0.092622444
0.08261763 -0.0339056 0.0992499 0.083170906 0.0842972 0.033484068 0.10232042 0.09405625
0.036536206 0.030957576 0.068993084 0.028915085 0.03801 0.08414632 0.04247062 0.04200031
0.024452195 0.0134096835 0.11033359 0.09746983 0.095964655 0.09124878 0.081026405 0.08479506
0.04518881 0.100194536 0.0004583326 0.09229767 0.10304617 0.06767017 0.047681388 0.06139515
0.073436774 0.030769276 0.105821826 0.10075518 0.08577099 0.032334287 0.09013513 0.09280103
0.09156651 0.048741814 0.0430557 0.0831938 0.032078985 0.03561542 0.057194144 0.06021201
0.102376714 0.05948439 0.044831924 0.10295934 0.046392184 0.059214503 0.082412034 0.04137538
0.02033488 0.03479387 -0.033302717 0.025045987 0.06546822 0.056239843 0.06905265 0.042166963
0.059611764 0.06946396 0.112277135 -0.028030487 0.081434034 0.06613089 0.10317888 0.045964003
0.09443137 0.027481206 0.082272656 0.02290419 0.074785516 0.1286808 0.03960111 0.039386507
0.049781464 0.07154769 0.09127138 0.06970169 0.015281911 -0.035758298 0.030237027 0.055925604
0.053049862 0.03771209 -0.02540727 0.093556315 -0.04158887 0.053211637 0.10591299 0.05574303
-0.0038854838 0.10817863 0.06339312 0.041431684 0.09858806 -0.018290037 0.05500204 0.11321906
00000000: 361d f9bc 8579 653d a197 463d 8f67 a43d
00000010: b668 313d 404e 8d3d cc29 603c c1f2 103d
00000020: 8206 143d 431d 1b3d aa84 1e3d ccdd ce3d
00000030: 6af7 8f3d 370a f9bc eafa 153d 5fd8 53bc
00000040: 7641 57bc b94b 6b3d ff6c cd3d 54b1 b33d
00000050: ae80 a73d d3e8 bb3d 1eca a63d b9fc 9e3d
00000060: 69a2 9d3c 8f59 2fbc 3e1a 8e3d 8ae5 5d3d
00000070: f1e9 953d df6d b73d 66f9 3c3d 509d b73d
00000080: 2d09 ab3d 85e0 afbc 5829 dd3d 2b0f 6c3d
00000090: 35c1 463d 5209 c33c 1be6 203d 1154 8f3d
000000a0: b707 ea3c 5f36 cc3d 9531 b83d 415c 893d
000000b0: 4f4d b53d aeb8 ae3d bdf5 373d 73bb 143d
000000c0: 2e14 cf3d 4d49 c53d 307c 0b3d 06ec ca3d
000000d0: f125 cb3d 893d e43c 6f1c 193d 9b68 24bc
000000e0: 543e d23d 90be 633c 2e1e 9c3d 09fd 063d
000000f0: d0ac ce3d 6e68 323d 972d 9c3d 4426 aa3d
00000100: ce16 613d 763c b23d 74b5 2a3d eee4 7f3d
00000110: 68a8 443d 25d0 403d 4a9c 2c3d 5d19 ac3d
00000120: fea1 e3bb 48c8 aabc bf30 f63d 9668 753d
00000130: 0ea9 b83d 9ca9 b93c 58d4 983d b18e 18bd
00000140: 33bb ecbc 017d 993d 35fd 1ebc 3561 333d
00000150: 9c69 a63d 9c19 183d 3a61 393d a423 a13c
00000160: 4080 5a3d 4756 0a3d 2102 313d 41c3 af3d
00000170: a145 913c f1ee 2e3d 849f 903d 72db 373d
00000180: c431 843d d1ec d53d eb71 a73d cd86 6e3d
00000190: 3a1d 183d 4b67 7f3d 9433 113b 19ca b83d
000001a0: b81b 3a3d 5137 32bc 6b11 8cbc 1088 b93b
000001b0: 8139 dc3d 4ca0 733d 6095 2f3d 28ae 183d
000001c0: f798 a43d 258c a03d 98ff 273d fbdd d93d
000001d0: ca78 0cbb 60f1 833c 1fd1 bf3d 88b8 3c3d
000001e0: cd1c 963d 6e88 a43c 9bb8 803d 3d30 c23d
000001f0: 686d 413d b383 903d 16e8 0f3d e1b2 a13d
00000200: 01fd 0e3d b872 0dbb 0922 c83c 3e36 203d
00000210: db80 7c3d 58dd bbbc a808 a73d 9a5f ceba
00000220: e3c5 c43d 2a15 803d ff21 453d 977a 133d
00000230: a7ef a13d 50d1 02bd 2506 973d 74de ba3d
00000240: d714 843d 2876 9f3d 6cfa 813d 17b6 a33d
00000250: c842 8a3d 24f5 78bb 3faf 6d3d d6b0 bd3d
00000260: 6f33 a93d 99e0 0abd 8843 cb3d 8255 aa3d
00000270: 03a4 ac3d 9726 093d 5e8d d13d 90a0 c03d
00000280: fda6 153d be9a fd3c 3f4c 8d3d 54df ec3c
00000290: 60b0 1b3d e854 ac3d acf5 2d3d 8408 2c3d
000002a0: f84f c83c 4ab4 5b3c 94f6 e13d 439e c73d
000002b0: 1e89 c43d a4e0 ba3d 2cf1 a53d 08a9 ad3d
000002c0: e717 393d cb32 cd3d 5c4c f039 9006 bd3d
000002d0: df09 d33d a896 8a3d 8f4d 433d 7b79 7b3d
000002e0: 0566 963d d90f fc3c 1db9 d83d bb58 ce3d
000002f0: b3a8 af3d f570 043d c498 b83d 770e be3d
00000300: 3987 bb3d 7fa5 473d 2c5b 303d 8361 aa3d
00000310: 4165 033d 7ae1 113d 6844 6a3d dea0 763d
00000320: e2aa d13d e7a5 733d aea1 373d 59dc d23d
00000330: bb05 3e3d e88a 723d a4c7 a83d 3b79 293d
00000340: 5695 a63c 0484 0e3d 6e68 08bd 3e2d cd3c
00000350: 3414 863d c05b 663d 7a6b 8d3d 44b7 2c3d
00000360: 772b 743d 1f43 8e3d 8ef1 e53d 31a0 e5bc
00000370: e3c6 a63d a26f 873d 734f d33d c044 3c3d
00000380: 3c65 c13d 4420 e13c 917e a83d 91a1 bb3c
00000390: 2629 993d e6c4 033e c634 223d bf53 213d
000003a0: a6e7 4b3d 9887 923d 7dec ba3d c2bf 8e3d
000003b0: fb60 7a3c 4b77 12bd a4b3 f73c 3f12 653d
000003c0: d04a 593d fe77 1a3d e822 d0bc 749a bf3d
000003d0: 1759 2abd 72f4 593d e9e8 d83d ce52 643d
000003e0: 9aa3 7ebb c28c dd3d 41d4 813d 45b4 293d
000003f0: 89e8 c93d fdd4 95bc d249 613d 65df e73d

model.9.bias f4 [128]
0.10581123 0.14250085 0.13572223 0.0582542 0.15783411 0.13928431 0.12958246 -0.06551329
0.002399466 0.15226977 -0.06327634 0.14556113 0.06443164 0.13794498 0.11970958 -0.003710635
0.2101434 0.11300032 -0.01460263 0.10126301 0.07920856 0.083659075 0.08639289 0.06150842
0.10259235 -0.001987216 0.13828358 0.11773989 0.111955464 0.057345446 -0.026794974 0.18846571
0.022336653 0.13802245 0.10867426 0.16630885 0.00352801 0.0961705 0.14530863 -0.032967493
0.05986699 0.101487786 0.1245458 0.030032462 0.10326688 0.09584041 -0.018229589 -0.059957247
0.1105172 0.11529472 0.045219395 -0.05536878 0.16478899 0.07962746 0.089648254 0.15430251
-0.00014161311 0.0574892 -0.053760245 0.14878783 -0.024873612 0.038775712 0.028558342 -0.0077798096
0.053536206 0.042665444 0.10168718 -0.021791464 0.098336674 -0.00092829764 0.117908046 0.028637987
-0.04278186 0.082745306 0.115258 0.17397146 -0.012653488 0.16352539 0.06466055 0.12040723
0.061559554 -0.026622698 0.07643323 0.11104839 0.023554582 0.114546254 -0.026001548 0.13519906
0.05497486 -0.06276597 0.113813065 0.14916049 0.09440566 0.055130586 0.12899667 -0.041963488
0.1160013 0.18456015 0.07997581 0.1413665 0.12628943 -0.017802564 0.16606332 0.15948834
0.027698984 0.115374036 0.13951834 0.14117447 0.020939048 0.017425409 -0.033157844 0.048790213
0.2079735 0.033349954 0.13932998 -0.018330568 -0.060002826 0.09900625 0.14461474 -0.009203994
0.15498473 0.10584935 0.11331625 0.07957736 0.23059939 0.17373312 0.05671213 0.1418207
00000000: 8fb3 d83d beeb 113e c5fa 0a3e f59b 6e3d
00000010: 449f 213e 8ca0 0e3e 44b1 043e d52b 86bd
00000020: 5c40 1d3b 9bec 1b3e 0797 81bd fa0d 153e
00000030: bcf4 833d 7341 0d3e 4c2a f53d 202e 73bb
00000040: d52f 573e b66c e73d df3f 6fbc fb62 cf3d
00000050: 1938 a23d 7355 ab3d c1ee b03d 41f0 7b3d
00000060: f01b d23d f43b 02bb 369a 0d3e 9d21 f13d
00000070: e848 e53d 0fe3 6a3d 2281 dbbc 28fd 403e
00000080: 5bfb b63c c255 0d3e 9c90 de3d de4c 2a3e
00000090: 3036 673b 0af5 c43d c9cb 143e ec08 07bd
000000a0: 1737 753d d4d8 cf3d de11 ff3d a306 f63c
000000b0: 967d d33d fa47 c43d 3856 95bc bb95 75bd
000000c0: d756 e23d a31f ec3d f937 393d 60ca 62bd
000000d0: 72be 283e b913 a33d 8199 b73d 7a01 1e3e
000000e0: fb7d 14b9 cc79 6b3d b433 5cbd d65b 183e
000000f0: bfc3 cbbc 48d3 1e3d 2ff3 e93c c6ed febb
00000100: c848 5b3d f6c1 2e3d 5e41 d03d 0384 b2bc
00000110: bd64 c93d 0059 73ba c679 f13d 369a ea3c
00000120: 083c 2fbd 5f76 a93d 630c ec3d 9325 323e
00000130: 9350 4fbc 3373 273e c06c 843d 1198 f63d
00000140: df25 7c3d d817 dabc 0689 9c3d 576d e33d
00000150: 8af5 c03c 3a97 ea3d 3301 d5bc 9f71 0a3e
00000160: 522d 613d 728b 80bd d316 e93d 87bd 183e
00000170: c157 c13d 9cd0 613d b417 043e e8e1 2bbd
00000180: 1792 ed3d 56fd 3c3e 5cca a33d 61c2 103e
00000190: 0452 013e afd6 91bc 810c 2a3e e950 233e
000001a0: fbe8 e23c 3949 ec3d e5dd 0e3e 0a90 103e
000001b0: 5e88 ab3c bbbf 8e3c 85d0 07bd 3fd8 473d
000001c0: 01f7 543e f699 083d 85ac 0e3e fd29 96bc
000001d0: 86c5 75bd cac3 ca3d e315 143e 59cc 16bc
000001e0: 51b4 1e3e 8bc7 d83d 5a12 e83d 74f9 a23d
000001f0: 3f22 6c3e 18e7 313e fa4a 683d 7239 113e

model.0.weight_quantized i1 [40, 1024]
10 3 -33 0 12 -9 6 -3
-22 -3 -19 -3 6 -7 10 -5
2 8 -1 -32 -14 3 5 -6
-5 6 -5 6 -33 2 -6 -4
-7 -4 -8 -3 3 -1 9 22
-11 10 -19 1 -8 -4 -1 -46
-39 2 1 1 -57 4 -5 7
0 -52 13 1 -8 0 -17 10
-4 -7 -5 12 8 9 6 9
-27 7 -17 10 -9 1 -3 -2
-5 -9 -4 6 2 -23 -1 48
-2 10 9 5 6 7 -19 9
-6 11 -4 4 12 3 5 9
9 -4 5 5 4 -45 -9 -11
-12 -51 -49 0 -3 5 11 1
-40 10 35 1 2 8 -5 4
-13 0 -4 10 -4 12 0 -1
-60 3 27 9 8 -8 0 9
9 7 -5 11 10 -9 -6 -6
9 -8 1 7 -4 -64 19 -5
3 43 -1 -25 1 10 -14 4
9 -4 3 5 4 0 -3 -4
5 10 -1 5 -7 -6 10 15
1 1 10 2 8 -29 48 7
-5 2 2 -2 -17 8 9 -8
-2 -4 7 -5 -34 3 -52 8
4 -13 3 8 10 -1 3 19
19 -5 -4 10 8 -6 9 -8
-4 -1 2 11 -3 -33 8 -1
-4 7 -4 14 -23 10 5 -1
5 9 3 -7 -5 3 5 1
5 -41 7 5 -49 6 -43 13
00000000: 0a03 df00 0cf7 06fd eafd edfd 06f9 0afb
00000010: 0208 ffe0 f203 05fa fb06 fb06 df02 fafc
00000020: f9fc f8fd 03ff 0916 f50a ed01 f8fc ffd2
00000030: d902 0101 c704 fb07 00cc 0d01 f800 ef0a
00000040: fcf9 fb0c 0809 0609 e507 ef0a f701 fdfe
00000050: fbf7 fc06 02e9 ff30 fe0a 0905 0607 ed09
00000060: fa0b fc04 0c03 0509 09fc 0505 04d3 f7f5
00000070: f4cd cf00 fd05 0b01 d80a 2301 0208 fb04
00000080: f300 fc0a fc0c 00ff c403 1b09 08f8 0009
00000090: 0907 fb0b 0af7 fafa 09f8 0107 fcc0 13fb
000000a0: 032b ffe7 010a f204 09fc 0305 0400 fdfc
000000b0: 050a ff05 f9fa 0a0f 0101 0a02 08e3 3007
000000c0: fb02 02fe ef08 09f8 fefc 07fb de03 cc08
000000d0: 04f3 0308 0aff 0313 13fb fc0a 08fa 09f8
000000e0: fcff 020b fddf 08ff fc07 fc0e e90a 05ff
000000f0: 0509 03f9 fb03 0501 05d7 0705 cf06 d50d

model.0.weight_scale f4 [1024]
0.013845737 0.01562754 0.0024695632 0.015470384 0.012589795 0.015676763 0.011947908 0.014578763
0.0031682549 0.013431577 0.0023554764 0.015184614 0.0129823135 0.0024544364 0.015951747 0.015496998
0.0145612145 0.01610843 0.0150968 0.0024497253 0.002205965 0.015722157 0.015921319 0.013242203
0.0150143765 0.013791186 0.01055717 0.009031556 0.0024629054 0.015829142 0.015230894 0.014750514
0.01614157 0.015593954 0.014019744 0.015153577 0.009564948 0.01572186 0.013829097 0.0021614973
0.013395418 0.005347303 0.0024401594 0.015956745 0.013721057 0.0114686685 0.015755355 0.0023554587
0.002468485 0.014699286 0.015550932 0.014543391 0.0021700838 0.015254391 0.012975548 0.015761228
0.015115216 0.002335556 0.005623728 0.013680712 0.013571902 0.014147498 0.00239483 0.012256036
0.015866332 0.013530808 0.015346286 0.012771826 0.0024649755 0.013544425 0.013214141 0.015496458
0.002361555 0.01466981 0.0024632907 0.016041812 0.002418928 0.01516695 0.0024130275 0.015440485
0.01350994 0.014516783 0.015185701 0.013852092 0.012733641 0.0035179644 0.014422254 0.0023225616
0.015470915 0.011342138 0.0139025375 0.0124362055 0.010814673 0.012492399 0.0024617752 0.014934953
0.015227687 0.013744989 0.015184779 0.015491364 0.013632218 0.015266176 0.015766213 0.015347481
0.015693398 0.015961595 0.014382665 0.013518271 0.015475113 0.002397754 0.014972179 0.0037507887
0.0023786356 0.0023865507 0.0024216145 0.015856266 0.015449847 0.0072676186 0.015100806 0.014562931
0.0023864345 0.015398281 0.0022389677 0.015614716 0.014597213 0.015685376 0.012729318 0.015609244
0.0024526205 0.013837582 0.014624547 0.0144301895 0.013955162 0.012729085 0.015560769 0.014548371
0.0024503407 0.014861699 0.0024511004 0.01551043 0.015176916 0.015752975 0.016273266 0.014117347
0.014836989 0.012910035 0.015508453 0.013353487 0.014651726 0.015780585 0.0148448255 0.016317964
0.01519998 0.004256328 0.015482304 0.01532004 0.013588215 0.0024462591 0.0023749897 0.013378677
0.016075874 0.0023588222 0.015927032 0.0024611193 0.015495981 0.01449951 0.002442453 0.015568978
0.013043155 0.014576694 0.0093211215 0.011887023 0.002447694 0.013443217 0.01301618 0.013102984
0.014148472 0.015317431 0.013383783 0.0134187825 0.013512593 0.014945745 0.013953247 0.0047709243
0.008996826 0.014476335 0.013428307 0.015435172 0.015347705 0.0024306616 0.0024188203 0.01462087
0.016126761 0.013109536 0.015060996 0.015752 0.0024454473 0.015313291 0.014543418 0.013594138
0.012422091 0.014201797 0.012936514 0.014210582 0.0024248525 0.015196644 0.002454718 0.01583479
0.015178242 0.003810398 0.015042174 0.014187104 0.015206127 0.014086336 0.0155265005 0.0023246403
0.0024449294 0.013262789 0.012242444 0.011811001 0.0024144885 0.007504057 0.012528914 0.01555786
0.0131662525 0.013181265 0.015927687 0.014719833 0.013581627 0.0024321903 0.013878317 0.0150643755
0.011069817 0.015479298 0.015388018 0.012273698 0.0024542806 0.015256336 0.015227211 0.013167908
0.014084406 0.013261605 0.014487144 0.015448923 0.014420199 0.0155453645 0.0151581615 0.015517599
0.014505088 0.0024363014 0.013672323 0.013241884 0.0024119434 0.016059149 0.0024241027 0.013783029
00000000: 3bd9 623c 5405 803c 65d8 213b 7e77 7d3c
00000010: 6d45 4e3c 8e6c 803c 29c1 433c c4db 6e3c
00000020: 7fa2 4f3b 1e10 5c3c 565e 1a3b e3c8 783c
00000030: c5b3 543c 9cda 203b 3dad 823c 1fe7 7d3c
00000040: 2992 6e3c d4f5 833c 9258 773c 928b 203b
00000050: f491 103b c1cb 803c 6d6d 823c d3f5 583c
00000060: dcfe 753c 6df4 613c fbf7 2c3c 17f9 133c
00000070: b268 213b 1eac 813c 008b 793c 24ac 713c
00000080: 533b 843c c97d 7f3c 11b3 653c b546 783c
00000090: 4db6 1c3c 21cb 803c 7093 623c e8a7 0d3b
000000a0: 7578 5b3c 6e38 af3b 15eb 1f3b b8b7 823c
000000b0: 49ce 603c 15e7 3b3c 6011 813c 0a5e 1a3b
000000c0: 4ec6 213b 46d5 703c 56c9 7e3c 6747 6e3c
000000d0: f737 0e3b 8eed 793c 6597 543c b11d 813c
000000e0: d0a5 773c 2110 193b 4047 b83b 1125 603c
000000f0: af5c 5e3c e8ca 673c 95f2 1c3b 8acd 483c
00000100: 1cfa 813c 52b0 5d3c fd6e 7b3c ec40 513c
00000110: 6d8b 213b 70e9 5d3c 2080 583c dbe4 7d3c
00000120: 51c4 1a3b a559 703c 296f 213b 1e6a 833c
00000130: e186 1e3b cd7e 783c e223 1e3b 17fa 7c3c
00000140: cc58 5d3c cdd7 6d3c 72cd 783c e3f3 623c
00000150: c3a0 503c a68d 663b 514b 6c3c 1e36 183b
00000160: b879 7d3c 60d4 393c 78c7 633c 3ac1 4b3c
00000170: 0730 313c ebac 4c3c bc55 213b bcb1 743c
00000180: 8c7d 793c aa32 613c 94c9 783c 7dcf 7d3c
00000190: ab59 5f3c fc1e 7a3c 2528 813c 0074 7b3c
000001a0: 718f 803c e4c1 823c 45a5 6b3c bd7b 5d3c
000001b0: 548b 7d3c a323 1d3b df4d 753c cbcf 753b
000001c0: e2e2 1b3b ad67 1c3b f3b3 1e3b 00e5 813c
000001d0: 5b21 7d3c 3425 ee3b 5f69 773c 5c99 6e3c
000001e0: ba65 1c3b 1249 7c3c a5bb 123b ded4 7f3c
000001f0: 2629 6f3c 9e7e 803c a18e 503c eabd 7f3c
00000200: 25bc 203b 07b7 623c cc9b 6f3c 9a6c 6c3c
00000210: 31a4 643c a78d 503c 98f2 7e3c 4a5c 6e3c
00000220: e595 203b 7c7e 733c a4a2 203b 751f 7e3c
00000230: 99a8 783c 620c 813c 834f 853c 724c 673c
00000240: d816 733c 9d84 533c 2b17 7e3c 95c8 5a3c
00000250: cb0d 703c 4946 813c b637 733c 40ad 853c
00000260: 5609 793c ab78 8b3b 7da9 7d3c e800 7b3c
00000270: 1ba1 5e3c 6b51 203b b7a5 1b3b 3d32 5b3c
00000280: 8db1 833c 7896 1a3b 6879 823c bb4a 213b
00000290: dbe2 7d3c 5a8f 6d3c 9011 203b 0715 7f3c
000002a0: f5b2 553c 16d3 6e3c 9eb7 183c cac1 423c
000002b0: 7e69 203b f040 5c3c d141 553c e6ad 563c
000002c0: fece 673c f6f5 7a3c a847 5b3c 74da 5b3c
000002d0: ec63 5d3c ffde 743c 299c 643c 6a55 9c3b
000002e0: 6c67 133c 262e 6d3c 6702 5c3c cee3 7c3c
000002f0: f174 7b3c bc4b 1f3b 1285 1e3b 608c 6f3c
00000300: 451c 843c 61c9 563c 65c2 763c 570a 813c
00000310: cc43 203b 99e4 7a3c 8447 6e3c f3b9 5e3c
00000320: 0786 4b3c a7ae 683c acf3 533c 80d3 683c
00000330: 46ea 1e3b 58fb 783c 56df 203b f6b7 813c
00000340: 29ae 783c dfb7 793b 7373 763c 0771 683c
00000350: 1f23 793c 60ca 663c dd62 7e3c fe58 183b
00000360: 1c3b 203b 2b4c 593c 8894 483c ee82 413c
00000370: 653c 1e3b 98e4 f53b 1346 4d3c 65e6 7e3c
00000380: 44b7 573c 3cf6 573c c87a 823c 742b 713c
00000390: 7985 5e3c 6265 1f3b e161 633c 92d0 763c
000003a0: 2d5e 353c e29c 7d3c 071e 7c3c 9f17 493c
000003b0: ffd7 203b b6f5 793c 8d7b 793c 36be 573c
000003c0: 48c2 663c 3447 593c 7c5b 6d3c 7b1d 7d3c
000003d0: b342 6c3c fcb1 7e3c f059 783c 873d 7e3c
000003e0: c0a6 6d3c 5baa 1f3b e101 603c 7df4 583c
000003f0: b211 1e3b 7a8e 833c b2dd 1e3b 37d2 613c

model.3.weight_quantized i1 [1024, 512]
6 5 -49 9 7 -37 9 9
19 6 -2 7 11 10 14 8
11 10 12 3 -47 12 6 5
8 6 5 -36 -60 11 2 5
10 4 9 16 12 0 5 -14
8 5 8 6 8 11 8 15
7 -6 4 9 12 8 7 13
8 8 6 6 9 14 2 6
10 19 15 18 13 14 12 -4
2 0 10 -51 4 4 12 11
8 32 5 7 7 7 6 11
12 9 12 12 4 10 11 11
4 12 6 32 7 9 9 9
12 34 13 2 7 -13 8 -2
14 7 11 -20 32 8 58 4
16 7 8 6 6 13 5 12
1 13 12 13 10 31 6 4
8 8 3 8 9 -5 14 16
16 10 14 9 11 15 10 11
28 8 3 11 3 13 54 11
16 5 5 11 7 5 4 -21
6 6 5 12 11 8 10 12
15 13 -8 15 7 8 10 5
14 10 9 -47 7 12 5 25
53 -33 7 5 16 12 10 -18
15 9 8 8 5 7 16 14
9 13 12 6 4 16 3 12
12 7 14 -57 15 6 -21 4
3 5 7 7 6 15 12 2
4 -33 7 -2 3 6 11 21
9 9 3 12 7 6 6 12
4 3 5 8 -46 9 3 5
00000000: 0605 cf09 07db 0909 1306 fe07 0b0a 0e08
00000010: 0b0a 0c03 d10c 0605 0806 05dc c40b 0205
00000020: 0a04 0910 0c00 05f2 0805 0806 080b 080f
00000030: 07fa 0409 0c08 070d 0808 0606 090e 0206
00000040: 0a13 0f12 0d0e 0cfc 0200 0acd 0404 0c0b
00000050: 0820 0507 0707 060b 0c09 0c0c 040a 0b0b
00000060: 040c 0620 0709 0909 0c22 0d02 07f3 08fe
00000070: 0e07 0bec 2008 3a04 1007 0806 060d 050c
00000080: 010d 0c0d 0a1f 0604 0808 0308 09fb 0e10
00000090: 100a 0e09 0b0f 0a0b 1c08 030b 030d 360b
000000a0: 1005 050b 0705 04eb 0606 050c 0b08 0a0c
000000b0: 0f0d f80f 0708 0a05 0e0a 09d1 070c 0519
000000c0: 35df 0705 100c 0aee 0f09 0808 0507 100e
000000d0: 090d 0c06 0410 030c 0c07 0ec7 0f06 eb04
000000e0: 0305 0707 060f 0c02 04df 07fe 0306 0b15
000000f0: 0909 030c 0706 060c 0403 0508 d209 0305

model.3.weight_scale f4 [512]
0.0055223256 0.005012086 0.0005987907 0.00504912 0.005144254 0.0005098776 0.0053568846 0.0054535307
0.00050610706 0.0053661256 0.00050824706 0.005425984 0.0050026774 0.0053739026 0.0053568827 0.005482465
0.0050948616 0.005548958 0.00496422 0.0020296848 0.00055962114 0.0053689526 0.0051200986 0.0023111901
0.00571851 0.0055194944 0.0049690134 0.00055057346 0.0005120327 0.0051936624 0.0047208345 0.005550111
0.005170729 0.005816799 0.0049297833 0.0054644276 0.005231306 0.005180637 0.0051794453 0.000614832
0.00545681 0.0053649037 0.005163306 0.005381564 0.005102102 0.005285549 0.0052951183 0.0053323684
0.005412168 0.002120309 0.0050013647 0.0056804745 0.0053150295 0.0049813516 0.0049412954 0.0051997914
0.005263328 0.005107134 0.005286579 0.005224604 0.0049959747 0.005458716 0.004993006 0.00510263
0.005109665 0.00051995885 0.0051184827 0.0005429281 0.005111491 0.005179999 0.005372748 0.0029984138
0.0053510596 0.0058288667 0.0053138677 0.00052018114 0.004976008 0.0050487625 0.0052615204 0.0054247817
0.004930225 0.00053950155 0.005625289 0.0056214994 0.005010711 0.0054345983 0.005247578 0.0043964256
0.0050711823 0.0053658364 0.005295404 0.0053645526 0.0052260826 0.0055614486 0.005054267 0.0052851033
0.0054073096 0.005526912 0.005352244 0.0005520773 0.005314667 0.0048948773 0.004360475 0.005252146
0.005191725 0.00057466625 0.0054785567 0.004888502 0.0054767374 0.0027955545 0.005434014 0.005742885
0.0005024009 0.005214984 0.0050817947 0.001392485 0.0023618774 0.0047829766 0.00050719065 0.005260796
0.0051277135 0.005336434 0.005122597 0.005211758 0.0051929574 0.0051100138 0.0051742867 0.004701237
0.0031881607 0.004960494 0.005180804 0.0054967557 0.0052192593 0.00054134795 0.0052596047 0.0055102943
0.0053320713 0.005378484 0.005721088 0.0056388336 0.005413363 0.00048905297 0.0055862837 0.0005660684
0.0051255813 0.0049897623 0.005478389 0.0048518195 0.005389915 0.0048507177 0.005295395 0.0056510097
0.00052881776 0.0054054884 0.0051700203 0.0047190874 0.005024546 0.005054479 0.0005340708 0.0055248733
0.004744899 0.0053362683 0.0050529093 0.005608124 0.004927161 0.0050208527 0.005013317 0.0005710253
0.0054312446 0.0053159753 0.005169286 0.0050327345 0.0047241948 0.0051344647 0.0053215846 0.0052629164
0.005149359 0.005168552 0.0029519354 0.0046689697 0.0052795233 0.0053645996 0.004968266 0.0054934174
0.0054463176 0.005376172 0.005254816 0.00051119 0.004970885 0.005075423 0.0055403835 0.0005493422
0.00050575 0.0005394608 0.0053766156 0.005185687 0.0052884817 0.00548811 0.005448619 0.00049059006
0.0050138715 0.0053482037 0.005048706 0.0053512035 0.005090237 0.0050010574 0.005075317 0.0052681514
0.005204567 0.005115405 0.00549446 0.0026372264 0.0052619455 0.0049013603 0.005359096 0.0051878486
0.005125865 0.004745268 0.0050913035 0.0005371449 0.0005168524 0.0053041545 0.00053708546 0.0048572817
0.004860401 0.005536779 0.0051747635 0.0044955844 0.005231825 0.0048780013 0.0052976646 0.0054469043
0.0050939415 0.00050663005 0.0047894255 0.0026872656 0.0041033844 0.0054695182 0.00520101 0.0036294898
0.005604135 0.005233397 0.005261848 0.005313218 0.00527618 0.005636127 0.0050688395 0.0051391376
0.004552097 0.0052652387 0.005197058 0.0051364666 0.0005127119 0.0051168916 0.005460734 0.005351491
00000000: a0f4 b43b 6d3c a43b 2af8 1c3a 1773 a53b
00000010: 2191 a83b 4ea9 053a ce88 af3b 88b3 b23b
00000020: 45ac 043a 53d6 af3b e23b 053a 74cc b13b
00000030: 80ed a33b 9017 b03b ca88 af3b 40a6 b33b
00000040: ccf2 a63b 09d4 b53b e5aa a23b 7604 053b
00000050: 8ab3 123a 0aee af3b 80c6 a73b 5677 173b
00000060: 5762 bb3b e0dc b43b 1bd3 a23b 5c54 103a
00000070: ef39 063a 992f aa3b 3bb1 9a3b b5dd b53b
00000080: 386f a93b d99a be3b 058a a13b f10e b33b
00000090: 606b ab3b 55c2 a93b 56b8 a93b ad2c 213a
000000a0: 0acf b23b 13cc af3b f330 a93b d557 b03b
000000b0: 892f a73b 6632 ad3b ac82 ad3b 26bb ae3b
000000c0: 8e58 b13b e2f4 0a3b 7de2 a33b 4623 ba3b
000000d0: b329 ae3b 9b3a a33b 97ea a13b 0363 aa3b
000000e0: ff77 ac3b bf59 a73b 0a3b ad3b 2833 ab3b
000000f0: 46b5 a33b 07df b23b 5f9c a33b f633 a73b
00000100: fa6e a73b d94d 083a f2b8 a73b 4a53 0e3a
00000110: 4b7e a73b fbbc a93b e00d b03b 0981 443b
00000120: f157 af3b 1400 bf3b f41f ae3b c45c 083a
00000130: c80d a33b 1770 a53b d568 ac3b 5ec2 b13b
00000140: ba8d a13b 566d 0d3a 5854 b83b 8e34 b83b
00000150: e430 a43b b714 b23b e0f3 ab3b e40f 903b
00000160: 292c a63b e6d3 af3b 1185 ad3b 21c9 af3b
00000170: 8f3f ab3b d03c b63b 449e a53b a92e ad3b
00000180: cd2f b13b 191b b53b e061 af3b 48b9 103a
00000190: a826 ae3b 3565 a03b 51e2 8e3b 321a ac3b
000001a0: 591f aa3b 33a5 163a 7785 b33b ba2f a03b
000001b0: 3476 b33b 9f35 373b d00f b23b d02e bc3b
000001c0: 8eb3 033a 75e2 aa3b 2f85 a63b 0b84 b63a
000001d0: bac9 1a3b 84ba 9c3b fdf4 043a c162 ac3b
000001e0: 6106 a83b 41dd ae3b 75db a73b 65c7 aa3b
000001f0: af29 aa3b e771 a73b 108d a93b d60c 9a3b
00000200: 76f0 503b a48b a23b bcc3 a93b 211e b43b
00000210: 5206 ab3b 3fe9 0d3a c358 ac3b b38f b43b
00000220: a8b8 ae3b fe3d b03b f777 bb3b f7c5 b83b
00000230: 9562 b13b ca33 003a 250d b73b 3564 143a
00000240: 7ef4 a73b 2981 a33b 0f84 b33b 03fc 9e3b
00000250: e29d b03b c5f2 9e3b fe84 ad3b 1b2c b93b
00000260: 5ca0 0a3a 8620 b13b 4669 a93b 93a2 9a3b
00000270: f2a4 a43b 0ba0 a53b e200 0c3a ff09 b53b
00000280: 197b 9b3b dddb ae3b e092 a53b 5bc4 b73b
00000290: 0674 a13b f785 a43b c046 a43b dcb0 153a
000002a0: 95f8 b13b a231 ae3b 1d63 a93b a3e9 a43b
000002b0: 6bcd 9a3b 033f a83b b060 ae3b 8b74 ac3b
000002c0: f4bb a83b f55c a93b 4275 413b 28fe 983b
000002d0: daff ac3b 86c9 af3b d6cc a23b 2002 b43b
000002e0: 0677 b23b 992a b03b 9730 ac3b 6101 063a
000002f0: cee2 a23b bc4f a63b 1b8c b53b bb01 103a
00000300: 4f94 043a 9a6a 0d3a 522e b03b b2ec a93b
00000310: 004b ad3b 9ad5 b33b 548a b23b f19a 003a
00000320: 674b a43b fc3f af3b 9e6f a53b 2659 af3b
00000330: 01cc a63b e9df a33b d84e a63b 75a0 ac3b
00000340: 138b aa3b 219f a73b df0a b43b 51d5 2c3b
00000350: 666c ac3b 979b a03b 5b9b af3b d4fe a93b
00000360: dff6 a73b 317e 9b3b f3d4 a63b 2fcf 0c3a
00000370: 617d 073a 79ce ad3b 32cb 0c3a d529 9f3b
00000380: 0044 9f3b de6d b53b 1091 a93b b24f 933b
00000390: bb6f ab3b a4d7 9f3b 0898 ad3b f27b b23b
000003a0: 14eb a63b 5ecf 043a 9df0 9c3b d61c 303b
000003b0: af75 863b a539 b33b 3c6d aa3b bcdc 6d3b
000003c0: e4a2 b73b ea7c ab3b 956b ac3b 811a ae3b
000003d0: cee3 ac3b 43af b83b 8218 a63b 3666 a83b
000003e0: c229 953b 0688 ac3b 154c aa3b ce4f a83b
000003f0: 8367 063a 99ab a73b f5ef b23b 8f5b af3b

model.6.weight_quantized i1 [512, 256]
-17 21 28 20 23 21 -39 49
34 32 -49 32 31 -12 6 -46
-41 27 19 29 15 25 5 32
-2 -46 15 21 25 24 6 30
8 -12 14 6 27 11 8 25
39 13 22 22 30 11 19 29
15 19 30 30 28 14 5 7
9 -53 29 21 13 30 39 6
13 32 34 12 13 6 34 32
-16 -16 24 33 26 29 10 -28
57 20 51 17 24 7 11 7
23 30 20 9 26 24 22 15
30 30 7 28 6 25 8 16
15 42 22 -24 31 28 22 21
7 20 15 24 11 -17 25 27
13 12 18 9 21 28 13 17
-7 -25 16 7 19 -41 12 45
24 25 29 17 22 19 21 14
33 16 29 21 16 -35 23 19
26 -52 19 22 22 32 14 27
31 31 25 9 19 35 37 17
25 16 42 21 11 38 12 28
13 7 -2 7 37 12 12 11
15 -14 10 32 2 27 24 15
15 7 27 32 9 26 5 15
18 20 16 32 27 12 11 4
35 34 -53 11 36 31 31 17
24 18 28 0 32 34 20 22
19 11 8 -28 32 19 26 45
19 6 12 15 16 -46 32 30
34 -42 -19 17 -13 11 10 33
-29 34 32 11 33 45 20 17
00000000: ef15 1c14 1715 d931 2220 cf20 1ff4 06d2
00000010: d71b 131d 0f19 0520 fed2 0f15 1918 061e
00000020: 08f4 0e06 1b0b 0819 270d 1616 1e0b 131d
00000030: 0f13 1e1e 1c0e 0507 09cb 1d15 0d1e 2706
00000040: 0d20 220c 0d06 2220 f0f0 1821 1a1d 0ae4
00000050: 3914 3311 1807 0b07 171e 1409 1a18 160f
00000060: 1e1e 071c 0619 0810 0f2a 16e8 1f1c 1615
00000070: 0714 0f18 0bef 191b 0d0c 1209 151c 0d11
00000080: f9e7 1007 13d7 0c2d 1819 1d11 1613 150e
00000090: 2110 1d15 10dd 1713 1acc 1316 1620 0e1b
000000a0: 1f1f 1909 1323 2511 1910 2a15 0b26 0c1c
000000b0: 0d07 fe07 250c 0c0b 0ff2 0a20 021b 180f
000000c0: 0f07 1b20 091a 050f 1214 1020 1b0c 0b04
000000d0: 2322 cb0b 241f 1f11 1812 1c00 2022 1416
000000e0: 130b 08e4 2013 1a2d 1306 0c0f 10d2 201e
000000f0: 22d6 ed11 f30b 0a21 e322 200b 212d 1411

model.6.weight_scale f4 [256]
0.0008274246 0.0029117302 0.0025718568 0.002690427 0.0028110181 0.0030993377 0.00071038667 0.00076151587
0.0029400284 0.003168114 0.00070699083 0.002889406 0.0031216792 0.0006903881 0.0033549261 0.00077990926
0.00074954826 0.0030166644 0.003094251 0.0028851116 0.0029386468 0.0030613432 0.002393142 0.002932031
0.000726709 0.0008634928 0.0030182486 0.002930875 0.0029041676 0.0028419255 0.003293898 0.0029448129
0.002701418 0.0008876747 0.0027963032 0.0030356646 0.003002324 0.00302613 0.0031258014 0.0031896976
0.0007666196 0.0029417186 0.0026623358 0.0030809203 0.003187901 0.0030974578 0.0029984955 0.0030113806
0.0031574676 0.0031365356 0.002854292 0.002782007 0.0029229682 0.0027498342 0.0030669924 0.0007394542
0.003003278 0.0008110226 0.0030699298 0.0032067697 0.0031755453 0.0029418545 0.0027832908 0.0030121447
0.0031171448 0.0030397305 0.0029782054 0.0032451523 0.0030061724 0.0028695809 0.0028739346 0.002709987
0.00073220866 0.0007632432 0.002777366 0.0030187273 0.0025808956 0.003086822 0.002994061 0.000720858
0.00073257065 0.0027763415 0.00072136504 0.0030645002 0.0029663963 0.0030263849 0.0028588844 0.0030612263
0.0029806837 0.0029961406 0.002755378 0.002992326 0.0027665189 0.0030382585 0.0027540817 0.003302784
0.003104684 0.0032711315 0.0032277876 0.0032354156 0.00298862 0.0032177588 0.00076234207 0.0031243556
0.002959323 0.00071795995 0.00072801235 0.00073326036 0.0031041307 0.0030554777 0.0029135444 0.0029661993
0.003115573 0.003006427 0.0028998014 0.0027985214 0.0008304984 0.00073549076 0.0027798396 0.002211615
0.003089267 0.0030893004 0.003055849 0.0029016254 0.003087971 0.003146262 0.0029105707 0.0028964118
0.00075291126 0.0007097289 0.00298105 0.0028703862 0.0031678025 0.0007617443 0.0029167682 0.0007271579
0.0032085816 0.002892711 0.0031199472 0.00293142 0.0032253878 0.0007500575 0.0030686993 0.002991896
0.002772527 0.0030891984 0.002780987 0.0030917265 0.002734 0.00073409785 0.0029462022 0.0030490393
0.0028037778 0.0007726974 0.0031042402 0.0032009906 0.002889985 0.0030202812 0.0025836297 0.0028009403
0.0031359138 0.000711935 0.002741931 0.0007236649 0.0030107077 0.0026110641 0.0031094956 0.0031903475
0.0031620665 0.0007402513 0.00258102 0.002967288 0.0027549951 0.0027555302 0.002733228 0.0028788515
0.0030167205 0.0030710797 0.00080353464 0.0026761985 0.002803165 0.0028575386 0.0028056018 0.0032026346
0.0030731016 0.0008199048 0.0028752685 0.0030501503 0.002579438 0.002925327 0.0030056552 0.003258584
0.002995952 0.0031657724 0.002805587 0.0028321294 0.0031258706 0.0030684941 0.0028223824 0.00308742
0.0030311171 0.0030036303 0.0031164552 0.003028795 0.0031000753 0.0026650946 0.0031332045 0.0029818816
0.00083653996 0.0031439746 0.000764672 0.0030521117 0.0028103376 0.0031213802 0.0031164826 0.003140344
0.0031285577 0.0031270473 0.0029296887 0.00073805894 0.0026589513 0.0028065986 0.0031235884 0.0030062723
0.0027463387 0.0028456661 0.003102175 0.0007211112 0.002855668 0.0023507264 0.003126125 0.0007119111
0.0029285834 0.0030805555 0.0027676495 0.0030726101 0.0027476824 0.0007180281 0.0028050076 0.003054205
0.0029110964 0.00078776287 0.00084516854 0.0030600778 0.0007835749 0.0031234473 0.0031553798 0.0028926758
0.0007814965 0.0029459044 0.0030783233 0.0030190835 0.002806214 0.00073477486 0.00264665 0.002871541
00000000: 86e7 583a bad2 3e3b 998c 283b e051 303b
00000010: 0f39 383b 421e 4b3b 3e39 3a3a 77a0 473a
00000020: 7ead 403b 22a0 4f3b 5a55 393a 305c 3d3b
00000030: 1695 4c3b 29fb 343a 52de 5b3b d372 4c3a
00000040: 557d 443a 3bb3 453b ebc8 4a3b 2414 3d3b
00000050: 5096 403b d1a0 483b 43d6 1c3b 5127 403b
00000060: 9e80 3e3a 055c 623a cfcd 453b ec13 403b
00000070: d953 3e3b 993f 3a3b 70de 573b c3fd 403b
00000080: 460a 313b d7b2 683a 2f42 373b 00f2 463b
00000090: a3c2 443b 0952 463b 3fda 4c3b 3f0a 513b
000000a0: f8f6 483a d9c9 403b 957a 2e3b 44e9 493b
000000b0: 1bec 503b b8fe 4a3b 6882 443b 955a 453b
000000c0: 84ed 4e3b 568e 4d3b 130f 3b3b 5552 363b
000000d0: 458f 3f3b 9036 343b 98ff 483b eed7 413a
000000e0: a5d2 443b ce9a 543a e030 493b ab28 523b
000000f0: cf1c 503b 21cc 403b df67 363b 6767 453b
00000100: 0349 4c3b 3736 473b ff2d 433b 9fac 543b
00000110: 3403 453b 940f 3c3b 9f58 3c3b 0a9a 313b
00000120: b1f1 3f3a 6214 483a 7804 363b d7d5 453b
00000130: 3e24 293b 484c 4a3b 0238 443b f6f7 3c3a
00000140: fc09 403a 48f3 353b fd19 3d3a c8d5 483b
00000150: df67 423b 5056 463b 1f5c 3b3b db9e 483b
00000160: 9357 433b e65a 443b 9293 343b e61a 443b
00000170: 7c4e 353b 851d 473b d37d 343b 8573 583b
00000180: f477 4b3b 7b60 563b 4a89 533b 4409 543b
00000190: b9dc 433b 09e1 523b e9d7 473a fdc1 4c3b
000001a0: 34f1 413b 7a35 3c3a 15d8 3e3a 4538 403a
000001b0: ac6e 4b3b 693e 483b 2af1 3e3b 9164 423b
000001c0: a42e 4c3b 7a07 453b 980a 3e3b 6667 373b
000001d0: ceb5 593a f3cd 403a f82d 363b bef0 103b
000001e0: 4d75 4a3b dc75 4a3b a444 483b 3229 3e3b
000001f0: 8e5f 4a3b 8431 4e3b 46bf 3e3b bad1 3d3b
00000200: 055f 453a 1a0d 3a3a b85d 433b 171d 3c3b
00000210: e89a 4f3b cbaf 473a 4027 3f3b be9e 3e3a
00000220: 1147 523b a393 3d3b 0778 4c3b 111d 403b
00000230: 0761 533b 829f 443a 3b1c 493b af13 443b
00000240: 49b3 353b 2674 4a3b 3841 363b 909e 4a3b
00000250: e92c 333b 7970 403a 1215 413b 64d2 473b
00000260: 96bf 373b d88e 4a3a 8270 4b3b b6c7 513b
00000270: e765 3d3b e9ef 453b 1d52 293b fb8f 373b
00000280: e783 4d3b 26a1 3a3a f8b1 333b 54b4 3d3a
00000290: 4b4f 453b 631e 2b3b aec8 4b3b 2615 513b
000002a0: ac3a 4f3b 6c0d 423a 5426 293b d576 423b
000002b0: 268d 343b 2096 343b f51f 333b 1dab 3c3b
000002c0: 2cb4 453b 2b44 493b 4ca4 523a 2963 2f3b
000002d0: 4eb5 373b 8b45 3b3b 30de 373b 4be3 513b
000002e0: 1766 493b e1ee 563a 006f 3c3b 08e5 473b
000002f0: ca0b 293b d8b6 3f3b 87fa 443b f88d 553b
00000300: bc57 443b d978 4f3b f0dd 373b 3f9b 393b
00000310: 68db 4c3b ca18 493b b8f7 383b 5056 4a3b
00000320: b5a5 463b 8ed8 443b 713d 4c3b bf7e 463b
00000330: a22a 4b3b dea8 2e3b 7356 4d3b ac6b 433b
00000340: 3f4b 5b3a 240b 4e3b 4574 483a f005 483b
00000350: a42d 383b 1290 4c3b e73d 4c3b 3bce 4d3b
00000360: 7d08 4d3b 26ef 4c3b 0500 403b 4c7a 413a
00000370: cd41 2e3b e9ee 373b 1eb5 4c3b e104 453b
00000380: ebfb 333b 5b7e 3a3b dc4d 4b3b f408 3d3a
00000390: 2926 3b3b a50e 1a3b addf 4c3b 8c9f 3a3a
000003a0: 7aed 3f3b 25e3 493b 7461 353b d85d 493b
000003b0: 7612 343b 0d3a 3c3a 38d4 373b 0f29 483b
000003c0: 18c8 3e3b df81 4e3a 4d8e 5d3a 968b 483b
000003d0: d268 4d3a c0b2 4c3b 7dca 4e3b 0c93 3d3b
000003e0: 58dd 4c3a 1310 413b b2bd 493b d1db 453b
000003f0: 75e8 373b e89d 403a 6b73 2d3b 7730 3c3b

model.9.weight_quantized i1 [256, 128]
-18 3 -14 -41 15 -19 23 -21
6 -17 30 -26 22 -16 -20 32
-3 -23 54 -16 19 -29 -24 -1
26 34 -21 -23 6 -19 -26 -21
1 -23 8 -2 -21 27 -18 -34
3 -4 -17 36 21 8 15 -45
-7 23 -28 -19 -17 -14 -6 25
-20 29 -50 -23 24 34 50 4
43 -36 27 -9 1 62 22 24
-43 6 -13 17 40 4 -2 -2
0 26 33 -7 -16 -5 14 -3
-40 23 -24 -12 23 38 -5 37
-17 19 31 26 -27 -42 -16 -4
11 -18 -4 -18 -9 22 24 -42
22 -47 15 -10 33 -29 -21 -32
-9 21 -10 -23 20 19 57 -28
20 56 42 2 10 21 47 -23
-6 13 -15 21 42 33 32 -57
39 45 -48 39 36 45 14 59
56 40 61 43 21 20 3 21
20 33 32 29 -42 22 36 -22
26 58 31 20 23 37 35 6
15 17 43 -58 15 25 52 57
-7 46 -59 57 -1 21 10 30
23 -31 38 30 5 -12 20 -40
33 10 11 32 -33 31 18 42
18 -25 41 51 45 6 -52 28
19 32 12 21 15 22 37 19
47 60 41 11 58 40 10 44
9 63 59 54 24 28 37 35
55 -41 13 -41 -29 52 46 -15
31 17 57 18 13 45 -20 7
00000000: ee03 f2d7 0fed 17eb 06ef 1ee6 16f0 ec20
00000010: fde9 36f0 13e3 e8ff 1a22 ebe9 06ed e6eb
00000020: 01e9 08fe eb1b eede 03fc ef24 1508 0fd3
00000030: f917 e4ed eff2 fa19 ec1d cee9 1822 3204
00000040: 2bdc 1bf7 013e 1618 d506 f311 2804 fefe
00000050: 001a 21f9 f0fb 0efd d817 e8f4 1726 fb25
00000060: ef13 1f1a e5d6 f0fc 0bee fcee f716 18d6
00000070: 16d1 0ff6 21e3 ebe0 f715 f6e9 1413 39e4
00000080: 1438 2a02 0a15 2fe9 fa0d f115 2a21 20c7
00000090: 272d d027 242d 0e3b 3828 3d2b 1514 0315
000000a0: 1421 201d d616 24ea 1a3a 1f14 1725 2306
000000b0: 0f11 2bc6 0f19 3439 f92e c539 ff15 0a1e
000000c0: 17e1 261e 05f4 14d8 210a 0b20 df1f 122a
000000d0: 12e7 2933 2d06 cc1c 1320 0c15 0f16 2513
000000e0: 2f3c 290b 3a28 0a2c 093f 3b36 181c 2523
000000f0: 37d7 0dd7 e334 2ef1 1f11 3912 0d2d ec07
